demo/checkpoint/m-1667541321.6601925-epoch267-0.0004.pth (torch, 426391 bytes, 6 tensors)

fc1.weight f4 [256, 280]
0	0x3d2ce3ec	0.04220955
1	0xbd7315fd	-0.05934714
2	0x3d27df91	0.040984694
3	0xbcafdf03	-0.021468645
4	0x3d31aeb4	0.0433795
5	0xbca89153	-0.020577108
6	0xbd78d6aa	-0.060751595
7	0xbd6a740a	-0.05723957
8	0x3d10894a	0.03528718
9	0x3d543180	0.05180502
10	0xbd219f5b	-0.039458614
11	0x3d07dfb6	0.03317233
12	0xbc887f73	-0.016662335
13	0xbb52ec98	-0.0032184478
14	0xbcd1425f	-0.025544344
15	0xbbbc8a7c	-0.0057538133
16	0x3cc3a9c0	0.023884654
17	0x3ccf3efc	0.025298588
18	0xbcc7270b	-0.02431061
19	0x3c2722cf	0.01020117
20	0xbd73b89b	-0.059502225
21	0x3d2fd51b	0.042927843
22	0x3c34c00c	0.011032116
23	0x3cc92234	0.024552442
24	0xbc87e14c	-0.016586922
25	0x3cbca27a	0.023026694
26	0xbc8b2ca4	-0.01698906
27	0x3d5d2cbe	0.053997748
28	0xbac2dd2f	-0.0014866943
29	0xbd6fea3f	-0.058573004
30	0xbd59b83f	-0.053154226
31	0x3d0d08d1	0.034432236
32	0x3d88a46c	0.06671986
33	0x3a569265	0.00081852666
34	0x3c8db237	0.017296894
35	0x3d1f3b45	0.038874883
36	0xbd0d5e65	-0.03451385
37	0x3d2be89e	0.041969888
38	0x3d5416f7	0.051779713
39	0xbd11ef14	-0.035628393
40	0xbd147d70	-0.03625244
41	0x3bf022b2	0.0073283548
42	0x3d4aa632	0.049474902
43	0xbbf478d3	-0.0074606924
44	0xbd539ada	-0.05166135
45	0xbcc11933	-0.023571586
46	0x3c3b0d78	0.011416785
47	0xbca1ac8d	-0.019735599
48	0x3d49c040	0.04925561
49	0x3c88795a	0.016659427
50	0xbd0812e6	-0.033221148
51	0xbcbc41bd	-0.022980565
52	0xbd40d20e	-0.047075324
53	0xbd8134b1	-0.06308878
54	0xbd02a565	-0.031896014
55	0x3d1c7f44	0.038207307
56	0xbd44a286	-0.048006557
57	0x3d4ebfc5	0.050475854
58	0xbb945500	-0.0045267344
59	0x3bcb8910	0.0062114075
60	0x3d63d565	0.05562343
61	0xbc412cb7	-0.011790446
62	0xbb7a6dc7	-0.0038212405
63	0x3d270e8d	0.04078536
64	0x3d62e9fd	0.05539893
65	0x3a4e5b00	0.00078718364
66	0xbd4a1ad6	-0.049342
67	0x3cd86bbe	0.026418563
68	0x3d270b4e	0.040782265
69	0x3c2edb12	0.010672348
70	0xbce1aedf	-0.027549205
71	0x3cd536f6	0.026027184
72	0x3cab4fde	0.020912107
73	0x3bd679bd	0.006545274
74	0x3d6de5a7	0.05808034
75	0xbd821d1f	-0.06353211
76	0xbd565f50	-0.05233699
77	0xbd1c0d47	-0.0380986
78	0x3d4cba53	0.04998238
79	0x3cc0d840	0.023540616
80	0x3c95f1c1	0.018303754
81	0xbc306945	-0.010767286
82	0xbc8dc395	-0.017305175
83	0x3c571bd1	0.013129191
84	0x3d74c7a2	0.059760697
85	0xbd6328ef	-0.05545896
86	0xba9f728d	-0.0012164876
87	0x3d34ed89	0.044171844
88	0xbd250560	-0.04028833
89	0x3c52959f	0.012853055
90	0x3cc5e2a2	0.024155919
91	0xbc662d9c	-0.01404896
92	0xbcac23f0	-0.02101323
93	0xbd714a08	-0.058908492
94	0x3d5bef02	0.053694732
95	0xbd853188	-0.06503588
96	0xbd1d56d8	-0.0384129
97	0xbd444283	-0.047914993
98	0xbc950b02	-0.018193725
99	0xbcc71f6a	-0.024306972
100	0x3c774afc	0.015093561
101	0xbd4f7a85	-0.050653953
102	0x3d370bcd	0.04468899
103	0xbcd771e0	-0.026299417
104	0x3c9395a5	0.018015692
105	0x3d11ab4b	0.03556375
106	0xbcd0c2ac	-0.025483452
107	0xbc93428d	-0.01797607
108	0x3d841cca	0.064508036
109	0x3ced146f	0.028940408
110	0xbd8a4a84	-0.06752494
111	0x3c201ff7	0.009773246
112	0xbd3f3e9f	-0.04669058
113	0xbd36f369	-0.044665728
114	0x3d28cc2c	0.04121034
115	0xbc3d927c	-0.011570569
116	0xbced719d	-0.02898484
117	0xbd545265	-0.05183639
118	0xbd1b1d7b	-0.03786991
119	0x3c5d3b90	0.01350297
120	0xbd58768b	-0.052847426
121	0xbd30cb24	-0.04316248
122	0xbbb517e1	-0.005526528
123	0xbae64e84	-0.0017571007
124	0xbb8ab81d	-0.004233374
125	0x3b2ed077	0.0026674548
126	0x3b81c275	0.0039599487
127	0xbba2b642	-0.0049655745
128	0x3cb5f9e3	0.022213882
129	0x3d06381c	0.032768354
130	0xbc79d778	-0.015249126
131	0x3cdbeead	0.026847208
132	0x3be736ba	0.0070560845
133	0x3cf6839a	0.03009205
134	0x3cffdd1b	0.031233361
135	0xbd69c31c	-0.057070836
136	0xbc673324	-0.014111314
137	0x3d1004f9	0.035160992
138	0xbd0f7627	-0.03502479
139	0xbadf0d54	-0.0017017522
140	0xbcf0679e	-0.029346284
141	0xbd7a6c43	-0.061138403
142	0xbd06c08b	-0.032898467
143	0x3d2a287d	0.04154252
144	0xbba75d29	-0.005107541
145	0x3ca38ba2	0.019964043
146	0x3d37033e	0.044680826
147	0xbca49047	-0.020088328
148	0xbccf8e3f	-0.025336383
149	0xbca61825	-0.020275185
150	0x3cbe7ce1	0.023252906
151	0xbd80b2d8	-0.06284112
152	0xbd6bf958	-0.05761084
153	0xbd3354eb	-0.043782156
154	0x3b227b1c	0.0024792617
155	0xbd5d536e	-0.054034643
156	0xbcf4cdba	-0.029883254
157	0xbd0ba25c	-0.034090385
158	0x3c92bfae	0.017913666
159	0x3d4e3e85	0.050352592
160	0x3d21fe16	0.039548956
161	0x3d4d52c2	0.050127752
162	0x394faa72	0.00019804554
163	0xbd3673b0	-0.044543922
164	0x3d26b9a1	0.040704373
165	0xbb3248e7	-0.0027204098
166	0x35a1c574	1.2052901e-06
167	0xbcbdbee3	-0.023162311
168	0xbd1aa8b4	-0.037758544
169	0xbc929a01	-0.0178957
170	0x3d58f909	0.052971873
171	0x3caa5682	0.020793203
172	0x3d3089dd	0.043100227
173	0xbd588abb	-0.05286668
174	0x3bdea37b	0.0067943907
175	0xbc53a606	-0.012918001
176	0xbd7e4874	-0.062080815
177	0x3d2ecb7d	0.04267453
178	0xbd75d3e3	-0.060016524
179	0xbd0f9af8	-0.0350599
180	0xbc03e1d8	-0.008049451
181	0xbcd48fc5	-0.02594746
182	0xb9025ecb	-0.00012433079
183	0xbc5d711f	-0.01351574
184	0xbcfcdab9	-0.030866014
185	0xbd599991	-0.053124968
186	0x3d84b627	0.06480055
187	0x3d1c29de	0.038125865
188	0x3d6fe2e7	0.058566
189	0x3d57626a	0.05258409
190	0xbca13606	-0.01967908
191	0xbd417533	-0.04723091
192	0xbd1e0c5b	-0.038586
193	0x3d53b57d	0.051686753
194	0xbc46ce9b	-0.0121342195
195	0x3ca56493	0.02018956
196	0xbc4186da	-0.011811936
197	0x3d574e60	0.05256498
198	0x3d5a20c3	0.0532539
199	0xbcda10d1	-0.026619347
200	0xbd127322	-0.03575433
201	0x3d107e96	0.03527697
202	0xba83f177	-0.0010066469
203	0x3c714d21	0.014727862
204	0x3d0149eb	0.031564634
205	0xbd77a8f3	-0.060463857
206	0xbb62ee83	-0.0034627027
207	0xbd873a08	-0.066028655
208	0xbd4f1a2f	-0.05056208
209	0xbc225a3c	-0.009909209
210	0x3d04140a	0.032245673
211	0x3d37ba57	0.044855442
212	0xbd13259c	-0.03592454
213	0xbd362eba	-0.044478156
214	0xbc189b77	-0.009314409
215	0xbaf767df	-0.001887556
216	0x3ae3ed14	0.001738938
217	0xbc429374	-0.011875976
218	0x3c09ca92	0.008410113
219	0xbc7d92e0	-0.015476912
220	0xbd16ef60	-0.03684938
221	0x3cfdadfd	0.030966753
222	0x3d37cf15	0.044875223
223	0x3c0c29dc	0.008554902
224	0xbb51606e	-0.0031948346
225	0xbd51f73a	-0.051261164
226	0x3d6f104a	0.058365144
227	0xbba44106	-0.005012634
228	0xbd2c5461	-0.042072657
229	0xbba33eef	-0.0049818675
230	0x3cf4f210	0.02990058
231	0xbc6323cc	-0.013863515
232	0xbd0011b4	-0.031266883
233	0xbcdeee5b	-0.027213266
234	0x3cc83346	0.024438512
235	0x3c88d8f7	0.01670502
236	0x3b996513	0.0046812384
237	0x3cee3d40	0.02908194
238	0xbd36b028	-0.04460159
239	0xbd079eea	-0.033110537
240	0xbcf9e8c9	-0.030506508
241	0x3cfa3d92	0.030546937
242	0xbd01f2c1	-0.03172565
243	0x3c283e16	0.010268709
244	0xbce3ef66	-0.027824115
245	0xbd76a765	-0.060218234
246	0x3d5144f0	0.051091135
247	0xbd3ae072	-0.045624204
248	0xbd0016d9	-0.03127179
249	0xbd2b25e3	-0.04178418
250	0x3ccb2ccc	0.024801634
251	0x3d463617	0.048391428
252	0x3d88a05b	0.066712104
253	0xbd8572d1	-0.0651604
254	0x3d0bc836	0.034126483
255	0x3ce25961	0.02763051

fc1.bias f4 [256]
0	0x3cd3a827	0.025837017
1	0x3e567ed6	0.20946822
2	0x3ccaecf9	0.0247712
3	0x3cd2c0b7	0.02572666
4	0xbb1199ff	-0.0022217033
5	0xbc47e8fc	-0.012201544
6	0xbcdc3121	-0.026878895
7	0xbcb01acf	-0.021497158
8	0xbd7fe91d	-0.062478174
9	0xbd1c9281	-0.038225655
10	0xbd441447	-0.0478709
11	0x3d113db9	0.035459254
12	0x3d613817	0.054985132
13	0xbe850ac7	-0.25984785
14	0xbcf183d7	-0.029481811
15	0xbd3ebba0	-0.046565652
16	0xbd6d79dc	-0.057977542
17	0xbe20aad5	-0.15690167
18	0xbc8f96c5	-0.017527947
19	0xbd37eacf	-0.044901665
20	0xbd2be29b	-0.041964155
21	0xbc1f7395	-0.009732147
22	0xbd8b92c6	-0.06815104
23	0xbba75229	-0.00510623
24	0x3d203f0b	0.039122622
25	0x3a1ea411	0.00060516695
26	0x3d0ec2be	0.03485369
27	0xbc0f3bbf	-0.008742272
28	0x3cdbe9c2	0.026844863
29	0x3c69bf38	0.0142667815
30	0xbd273581	-0.04082251
31	0x3c64c425	0.01396278
32	0xbe9ea3bf	-0.30984303
33	0x3bfc62ba	0.007702199
34	0xbd51eeba	-0.051253058
35	0x3d66853a	0.0562794
36	0xbd25fe49	-0.04052571
37	0xbcd5bd18	-0.026091143
38	0xbdbdf498	-0.09275168
39	0xbd36b1e2	-0.044603236
40	0x3d2b5e12	0.04183776
41	0x3cb0647d	0.021532292
42	0xbd314f84	-0.043288723
43	0x3c6e0fe9	0.01453016
44	0xbc268057	-0.010162435
45	0x3d96717e	0.07345866
46	0xbc69e5c8	-0.0142759755
47	0xbe11691f	-0.14200257
48	0xbc50c178	-0.012741439
49	0xbd3329ae	-0.04374092
50	0xbb8c4894	-0.004281113
51	0x3d727125	0.059189934
52	0x3b7069ec	0.0036684228
53	0x3cd1009b	0.025512984
54	0x3d43fd2b	0.04784886
55	0xbcc806b0	-0.024417251
56	0xbd583ff7	-0.052795377
57	0x3b31d0a9	0.0027132428
58	0xbe2b94de	-0.16756007
59	0xbd06effd	-0.032943714
60	0xbb844df5	-0.0040376135
61	0xbcc63d8d	-0.024199272
62	0xbd58ea42	-0.05295778
63	0x3e176ce6	0.14787635
64	0xbe053608	-0.13008893
65	0x3c0da4a0	0.008645207
66	0xbcb0ee33	-0.021597957
67	0x3e4e215d	0.20129915
68	0x3b0d3404	0.0021545896
69	0x3ddfde6d	0.10931096
70	0xbd77b520	-0.06047547
71	0xbd6e2875	-0.05814405
72	0xbcc147cd	-0.023593808
73	0xbd7f27be	-0.06229376
74	0x3d33a993	0.04386289
75	0x3a867d1f	0.0010260678
76	0xbe16da67	-0.14731751
77	0xbc3463fc	-0.011010166
78	0x3bb50ac3	0.0055249645
79	0x3d259f60	0.040435195
80	0x3ccdb599	0.025111007
81	0xbc86c69c	-0.016452126
82	0x3d552a40	0.052042246
83	0x3b7ad1ae	0.0038271951
84	0x3d2a7540	0.041615725
85	0xbd278d2c	-0.040906116
86	0xbd12bb61	-0.03582323
87	0xbb774f2b	-0.0037736397
88	0x3ca55347	0.020181311
89	0x3d3232c5	0.04350545
90	0xbd48dde4	-0.049039736
91	0xbd6715eb	-0.056417387
92	0x3daf774a	0.085676745
93	0xbc82a52c	-0.0159479
94	0xbce7ba71	-0.028287144
95	0x3d17a037	0.037018027
96	0xbd74f806	-0.059806846
97	0x3c8acaf3	0.016942477
98	0x3d629767	0.05532017
99	0xbdc4a4f0	-0.09601772
100	0x3d9b0ddf	0.07571005
101	0xbd490aa1	-0.049082402
102	0x3d4c505e	0.04988133
103	0x3dbd0f2b	0.09231409
104	0xbdcc4da3	-0.099757455
105	0xbce2c3e3	-0.027681297
106	0x3d21c2a9	0.039492283
107	0xbe1604c1	-0.14650251
108	0x3d0d8bc1	0.034557108
109	0xbd204709	-0.039130244
110	0x3caf606c	0.021408282
111	0xbbfa08ca	-0.0076304423
112	0xbd6eb702	-0.05828
113	0xbd5ffdd3	-0.054685425
114	0xbd6f9d7d	-0.058499802
115	0xbd1324e8	-0.03592387
116	0xbcdd1a83	-0.02699018
117	0x3dfcb86e	0.12339865
118	0x3df90d2b	0.12160715
119	0xbcced4a6	-0.025247883
120	0x3d5a7268	0.053331763
121	0x3d956a01	0.07295609
122	0xbcae9674	-0.021311976
123	0xbc31fbd2	-0.010863261
124	0xbc873d3c	-0.016508691
125	0xbd240d84	-0.040051952
126	0xbd5eb5d2	-0.054372616
127	0xbd036334	-0.03207703
128	0x3d99e001	0.075134285
129	0xbbbb8334	-0.0057224277
130	0x3d0236f2	0.03179068
131	0xbe06d59c	-0.13167423
132	0xbb36d64c	-0.0027898727
133	0x3d66ee85	0.056379814
134	0x3c2a749a	0.010403777
135	0x3c4e3d9b	0.01258793
136	0xba7d98f2	-0.0009673975
137	0xbd9b340e	-0.07578288
138	0xbd123fe1	-0.03570545
139	0x3dc1a911	0.09456075
140	0xbd9894fd	-0.07450292
141	0x3d3ed8f8	0.046593636
142	0x3d39c158	0.045350403
143	0x3df84342	0.121222034
144	0x3d022eae	0.0317828
145	0x3dcfa229	0.101383515
146	0x3e1feb91	0.15617205
147	0x3e1f590a	0.1556131
148	0x3c1f6aed	0.009730083
149	0xbca83b40	-0.020536065
150	0xbc8d237a	-0.01722883
151	0xbd2a905f	-0.04164159
152	0xbd0b9200	-0.034074783
153	0xbd068499	-0.0328413
154	0xbc0a9473	-0.008458245
155	0xbc10faf0	-0.008848891
156	0x3d35c60f	0.044378337
157	0x3c005681	0.007833124
158	0xbd662ea1	-0.056196813
159	0xbb79031f	-0.0037996245
160	0x3cdfcdfe	0.027319904
161	0xbd442cbe	-0.047894232
162	0xbd66c641	-0.056341413
163	0x3c5f751b	0.01363876
164	0x3bf8f44b	0.0075974814
165	0xb88331e2	-6.255858e-05
166	0x3c967d37	0.018370254
167	0x3d04134b	0.03224496
168	0xbd842896	-0.06453054
169	0xbd3cfc92	-0.046139307
170	0x3d4ab60f	0.04949003
171	0x3d32a60b	0.043615382
172	0x3d801fd4	0.06256071
173	0xbe154c3f	-0.14579867
174	0x3d8e7ec1	0.0695777
175	0xbdd2bfad	-0.102904655
176	0x3cc1260c	0.023577712
177	0xbcf124d8	-0.029436514
178	0x3cda9370	0.026681632
179	0xbd596801	-0.0530777
180	0xbd025642	-0.031820543
181	0x3d1e406c	0.038635656
182	0xbd8c4242	-0.06848575
183	0xbd68ae74	-0.056806996
184	0x3df603dc	0.12012455
185	0x3c6efa5c	0.0145860575
186	0xbcc308ec	-0.023807965
187	0xbd016e16	-0.031599127
188	0xbd6a5197	-0.057206716
189	0xbe3377db	-0.1752619
190	0xbbd180b1	-0.006393515
191	0x3d143dcf	0.036191758
192	0xbdfb43be	-0.1226878
193	0x3bea5c5f	0.007152125
194	0x3d0b5d52	0.034024544
195	0x3e29c2a7	0.1657816
196	0xbd1e6c5a	-0.03867755
197	0xbca0aedc	-0.01961463
198	0x3df7cdbf	0.1209979
199	0xbd71db66	-0.059047125
200	0x3d307693	0.04308183
201	0x3d1c6d38	0.038190097
202	0x3d287bde	0.041133754
203	0xbb2015cd	-0.0024427057
204	0x3cd84c3b	0.026403537
205	0xbd779613	-0.060445856
206	0xbbc67904	-0.0060569067
207	0x3e1485d2	0.14504173
208	0xbe4481e5	-0.19190176
209	0x3e0d18ac	0.13778943
210	0x3d263292	0.04057557
211	0x3d42aa69	0.047525797
212	0xbd3d1ab6	-0.04616805
213	0xbd259cf1	-0.040432874
214	0x3cd5dafa	0.026105393
215	0xbcba8034	-0.02276621
216	0x3d6847b3	0.056709003
217	0xbd4ec363	-0.050479304
218	0xbb7ed978	-0.0038886946
219	0x3ce39fc4	0.027786143
220	0xbce6edd4	-0.028189577
221	0x3c4a1c66	0.012335872
222	0xbe0f43d8	-0.13990724
223	0xbccc3985	-0.024929771
224	0x3c9c937c	0.019113295
225	0x3d21414d	0.039368916
226	0xbce89ed3	-0.028396046
227	0x3e378e2e	0.17925331
228	0xbd443892	-0.047905512
229	0xbd8e366d	-0.06943975
230	0x3e39db5d	0.18150087
231	0x3cea61f2	0.028611157
232	0xbd731b26	-0.059352063
233	0xbd4dccff	-0.050244328
234	0xbe1e0a6c	-0.15433663
235	0xbc842de7	-0.01613517
236	0xbddd860b	-0.10816582
237	0xbe11d931	-0.14243008
238	0x3c2ee89f	0.010675578
239	0x3cc4aaeb	0.024007281
240	0x3c12e70b	0.008966218
241	0x3d3e2e02	0.046430595
242	0xbde935fb	-0.11387249
243	0xbd4fde6c	-0.050749227
244	0xbd4b17e3	-0.049583327
245	0x3d935c29	0.071953125
246	0x3c9e3430	0.019311994
247	0x3c391931	0.01129751
248	0x3cec1e89	0.028823154
249	0x3e37615e	0.17908236
250	0xbd5e899d	-0.054330457
251	0x3d3be8c5	0.045876283
252	0xbdcdafde	-0.1004331
253	0x3ca1b50a	0.019739646
254	0x3d3f1460	0.04665029
255	0x3e17c7af	0.14822267

fc2.weight f4 [128, 256]
0	0x3d025066	0.031814955
1	0x3dd5390a	0.1041127
2	0xbd8039f5	-0.062610544
3	0xbe1a15a2	-0.15047315
4	0xbd399134	-0.045304492
5	0xbce34374	-0.027742125
6	0xbc5d2068	-0.013496496
7	0x3c7e1733	0.015508461
8	0x3bfc42f7	0.0076984125
9	0x3c6bd957	0.01439508
10	0x3d195b61	0.03744066
11	0xbdb3d746	-0.087812945
12	0xbd919636	-0.071087286
13	0xbdaa03c9	-0.08301503
14	0x3c9b9bbd	0.01899516
15	0x3cddbfc9	0.02706899
16	0x3d1b7143	0.03794981
17	0xbd07453f	-0.033025023
18	0xbd95975f	-0.07304262
19	0xbcbf0052	-0.023315582
20	0xbcfceb56	-0.030873936
21	0x3ced3214	0.028954543
22	0xbd64595e	-0.05574929
23	0x3cf4bc4c	0.029874943
24	0x3d18af66	0.037276648
25	0x3b95f4a0	0.0045762807
26	0xbd19a666	-0.037512206
27	0x3cb9500c	0.022621177
28	0xbd744f3c	-0.059645876
29	0x3d0b1835	0.033958632
30	0xbd7a96ed	-0.06117909
31	0xbd50a458	-0.05093798
32	0x3d2daabf	0.042399164
33	0xbcbb5795	-0.02286891
34	0x3ce8d78b	0.028423091
35	0xbd4bc60e	-0.049749427
36	0x3d61b52d	0.055104423
37	0x3ba0bc90	0.004905291
38	0xbd007cde	-0.031369083
39	0xbc4d6cb0	-0.01253812
40	0xbd8a45e5	-0.067516126
41	0xbd385d07	-0.045010593
42	0x3c3174db	0.010831083
43	0x3d35313a	0.0442364
44	0x3d37aff2	0.04484553
45	0xbd7adca2	-0.061245568
46	0xbc1234c6	-0.008923715
47	0xbd3a4d3a	-0.045483805
48	0xbd0a090d	-0.033700038
49	0xbd2ce68a	-0.042212047
50	0xbd7bd068	-0.06147805
51	0x3d03c5ac	0.032170936
52	0xbd86f9fe	-0.06590651
53	0x3cd6895d	0.026188547
54	0x3d67244b	0.056431096
55	0xbd79e76b	-0.061011713
56	0xbd5bd2c6	-0.053667806
57	0xbd71cb30	-0.059031665
58	0xbba02512	-0.0048872316
59	0xbc95584e	-0.018230584
60	0xbd3e2740	-0.04642415
61	0xbd972ca7	-0.07381564
62	0x3c441d10	0.01196982
63	0x3d8d4880	0.06898594
64	0xbdae7382	-0.08518125
65	0xbcae0b4e	-0.021245625
66	0x3d10c1be	0.035341017
67	0xbd406ced	-0.04697888
68	0xbcb77d15	-0.022398511
69	0x3d7469f8	0.059671372
70	0xbb09d44c	-0.002103108
71	0xbc4c97ad	-0.012487334
72	0xbc9da964	-0.01924581
73	0xbd89ef6a	-0.06735118
74	0x3ceb84b9	0.02874981
75	0x3c5f0963	0.013613078
76	0x3d3c505f	0.045975085
77	0x3d7bee2c	0.061506435
78	0xbc308a3e	-0.010775147
79	0xbd9dd82d	-0.07707248
80	0x3d18e42d	0.03732698
81	0x3d5a2276	0.05325552
82	0x3d742838	0.059608668
83	0x3c1646d2	0.009172158
84	0xbce8d9bb	-0.028424134
85	0x3d2feac0	0.042948484
86	0xbd198e2c	-0.0374891
87	0x3e086fb4	0.13323861
88	0xbd1926d8	-0.03739056
89	0xbbc2deb0	-0.0059469566
90	0x3d2994cf	0.04140168
91	0xbd438d86	-0.04774239
92	0xbc89083d	-0.016727561
93	0x3c7e6f82	0.015529515
94	0x3d0ca326	0.034335278
95	0x3d505bb2	0.050868697
96	0xbcd72044	-0.026260503
97	0x3d5af2cd	0.05345421
98	0xbd0dc204	-0.034608856
99	0x3d1d43de	0.0383948
100	0x3d23fdcd	0.040036965
101	0xbd36bae0	-0.04461181
102	0xbd735232	-0.05940456
103	0x3e53c268	0.20679629
104	0x3d6a275d	0.057166446
105	0xbca4bfeb	-0.020111045
106	0xbd7b616f	-0.061372217
107	0x3d4ff59a	0.050771333
108	0xbd383114	-0.04496868
109	0xbd4cbed4	-0.049986675
110	0xbdb86bfc	-0.090049714
111	0xbd4b68a5	-0.049660344
112	0x3b796682	0.0038055484
113	0x3c773ff8	0.015090935
114	0x3bcc25fb	0.0062301136
115	0xbccf8574	-0.02533219
116	0xbcb79af5	-0.022412756
117	0x3dc6bc7c	0.09703919
118	0x39529d08	0.0002008566
119	0x3c580698	0.013185166
120	0xbcd73b9a	-0.026273537
121	0xbdfb3be1	-0.1226728
122	0xbd436a28	-0.04770866
123	0x3afb247d	0.0019160655
124	0x3ce9adfc	0.028525345
125	0xbd16c0b2	-0.036804862
126	0xbd78f98d	-0.060784865
127	0xbbf0b0ff	-0.0073453183
128	0x3d830430	0.06397283
129	0x3c5d2df2	0.013499724
130	0xbd2b0808	-0.041755706
131	0x3e123f98	0.14282072
132	0x3d0c9530	0.034321964
133	0x3cb08267	0.021546556
134	0xbd159f7c	-0.03652905
135	0xbd82d903	-0.06389048
136	0xbda98fa8	-0.082793534
137	0xbbc01cf5	-0.005862827
138	0x3d32f9a1	0.043695096
139	0xbcc7b81f	-0.024379788
140	0xbc8a9b48	-0.016919747
141	0xba1af142	-0.0005910584
142	0xbc08285a	-0.008310402
143	0x3cb65de3	0.022261566
144	0xbccd9f25	-0.0251003
145	0x3cd68e02	0.026190761
146	0x3cb2fcb2	0.02184901
147	0xbd073a85	-0.033014793
148	0xbdcd6d5e	-0.10030626
149	0xbaab9300	-0.0013090074
150	0xbcb94596	-0.022616189
151	0x3d55f3dc	0.052234516
152	0x3d1b5c76	0.037929974
153	0xbbeee82c	-0.0072908606
154	0xbd110094	-0.035400942
155	0x3c1991f4	0.009373177
156	0xbd85b534	-0.065287024
157	0xbd483c6d	-0.04888575
158	0xbd4602a0	-0.048342347
159	0xbd18f2ff	-0.037341114
160	0xbc62dd78	-0.013846748
161	0xbd06469d	-0.032782186
162	0xbc84db97	-0.01621799
163	0xbd6af1f7	-0.057359662
164	0x3d711a78	0.058863133
165	0x3c6d7c4d	0.014494968
166	0x3d14b12b	0.036301773
167	0xbd070104	-0.032959953
168	0x3c8314a7	0.016001059
169	0x3ce561bc	0.028000705
170	0x3cd4c728	0.025973871
171	0xbd13e0a6	-0.036102913
172	0x3cfa8104	0.030579098
173	0xbd0710cf	-0.032975014
174	0x3b07dead	0.002073209
175	0xbd045a28	-0.032312542
176	0xbc239e7b	-0.009986515
177	0x3cbf2aa0	0.023335755
178	0x3d0d9ede	0.034575336
179	0xbc8575d8	-0.016291544
180	0x3d2ef420	0.042713284
181	0x3d71ad02	0.059002884
182	0xbd6cbbfb	-0.05779646
183	0xbd3c17ea	-0.045921244
184	0x3cb03543	0.021509772
185	0x3d5db00c	0.05412297
186	0x3c121736	0.008916667
187	0xbd8b9642	-0.06815769
188	0xbcf32086	-0.029678594
189	0xbceafd9d	-0.028685385
190	0xbcef03f5	-0.029176692
191	0xbc80fd1e	-0.015745696
192	0x3bfab759	0.0076512513
193	0x3d3e6456	0.046482407
194	0xbd90e857	-0.07075565
195	0xbd4f4526	-0.050603054
196	0xbd3b068c	-0.04566054
197	0xbc282629	-0.010263004
198	0x3d9ac856	0.07557742
199	0xbd2a31f6	-0.041551553
200	0xbca07019	-0.019584702
201	0xbc5cd1d9	-0.013477766
202	0x3d220ee8	0.039564997
203	0xbd3051be	-0.043046705
204	0xb98af274	-0.00026502053
205	0xbcd6cc5a	-0.02622049
206	0xbbf56d94	-0.0074898694
207	0x3d505c0d	0.050869036
208	0x3db046ce	0.08607255
209	0x3dcb0388	0.09912783
210	0x3d0df2d6	0.034655415
211	0xbd4c227a	-0.049837567
212	0xbd7d6911	-0.061867777
213	0xbcf383d4	-0.029725946
214	0xbd8aebb1	-0.06783236
215	0xbcce5e2c	-0.025191389
216	0x3d38f25b	0.045153003
217	0x3d638282	0.055544384
218	0xbd0a6b67	-0.033793833
219	0x3d30e3ca	0.043185987
220	0xbd7c361e	-0.061575048
221	0x3b18d229	0.0023318625
222	0xbc984632	-0.01858816
223	0x3d4f069b	0.05054341
224	0xbb73fa58	-0.0037228074
225	0xbd45056c	-0.048100874
226	0x3d641a7e	0.055689327
227	0xbdc8f7e9	-0.0981291
228	0x3d2bd7a9	0.041953716
229	0x3da5fce7	0.08104878
230	0xbdf3335a	-0.11875029
231	0x3cc4c258	0.024018452
232	0xbd623d51	-0.055234257
233	0x3c2109dc	0.009829011
234	0x3d0ed46c	0.03487055
235	0x3d8fb026	0.070160195
236	0xbbab7658	-0.0052326135
237	0x3c6bec7f	0.014399647
238	0xbde333b0	-0.11093843
239	0xbc41c1b6	-0.011825969
240	0x3d750db9	0.05982754
241	0x3d58489d	0.052803624
242	0xbd621067	-0.055191424
243	0x3d7f3bc7	0.062312867
244	0xbd8b86d1	-0.068128236
245	0x3ce35f63	0.027755445
246	0xbc089732	-0.008336829
247	0xbc660ee9	-0.014041641
248	0xbd5e6755	-0.054297764
249	0xbbb77bae	-0.0055994606
250	0xbd21b24b	-0.039476674
251	0xbc13e655	-0.009027083
252	0x3db94a4a	0.09047373
253	0x3a94c328	0.0011349665
254	0x3b69b5e3	0.0035661391
255	0xbd862a97	-0.06551092

fc2.bias f4 [128]
0	0x3ca8ef63	0.020621961
1	0xbd72c2d2	-0.059267826
2	0xbdc750ed	-0.09732232
3	0x3c0337df	0.008008926
4	0x3e430b1e	0.1904721
5	0x3b3cd508	0.00288135
6	0x3cf3644a	0.029710907
7	0x3cfaab8a	0.030599374
8	0xbe003af3	-0.12522487
9	0x3d3cf8cf	0.04613572
10	0xbb667132	-0.0035162685
11	0x3bd0008e	0.0063477224
12	0xbcb00670	-0.021487445
13	0xbc672786	-0.014108544
14	0xbd9f585f	-0.07780527
15	0x3bfb7305	0.0076736235
16	0xbd459d9d	-0.048246015
17	0xbc6ca882	-0.014444472
18	0x3d0f2d37	0.03495523
19	0xbd1c877c	-0.038215145
20	0x3d3f2899	0.046669576
21	0x3d148fbd	0.036269892
22	0xbd010b60	-0.03150499
23	0x3c014c9f	0.007891803
24	0xbdb19f36	-0.08672945
25	0x3cfe7b49	0.031064646
26	0x3c99529c	0.018716149
27	0x3d5bbc08	0.053646117
28	0x3d01bb2e	0.03167265
29	0x3c039366	0.008030748
30	0x3e39acc8	0.18132317
31	0x3ba1fe87	0.004943672
32	0x3d1b7a2d	0.037958313
33	0xbda6cf5a	-0.08145018
34	0xbd2e2a33	-0.042520713
35	0x3d5496e7	0.051901724
36	0x3cc567e8	0.024097398
37	0xbd4cc3f6	-0.04999157
38	0x3cfea961	0.031086626
39	0xbbe431d8	-0.0069639497
40	0xbd1b2a83	-0.03788234
41	0xbc80390c	-0.015652202
42	0x3da1d4e9	0.079019375
43	0xbd35a2fe	-0.044344895
44	0x3cd4fcd5	0.025999466
45	0x3d16ff5a	0.036864616
46	0x3d0346d0	0.032049954
47	0x3dc944c1	0.09827567
48	0x3d0670e3	0.0328225
49	0xbe4867d5	-0.19570859
50	0xbcbcdd3c	-0.023054712
51	0xbd420b60	-0.04737413
52	0xbd89678c	-0.06709203
53	0x3e4e6938	0.20157325
54	0xbe43238b	-0.19056527
55	0xbd356adc	-0.044291362
56	0xbc0f6242	-0.008751454
57	0x3ce5cc96	0.028051656
58	0xbd88da95	-0.06682316
59	0xbb8a6b01	-0.0042241816
60	0xbcebdc78	-0.028791651
61	0x3dc62ce5	0.09676532
62	0xbc2a9f42	-0.010413947
63	0x3c9b9e07	0.018996252
64	0xbc8c096c	-0.017094336
65	0x3e9bffb4	0.30468524
66	0xbda51285	-0.08060173
67	0x3c68428f	0.014176025
68	0x3d66b804	0.056327835
69	0x3e90fc19	0.28317335
70	0xbd2b075a	-0.041755058
71	0x3e043255	0.12909825
72	0xbab9e847	-0.0014183604
73	0xbdd5ab5a	-0.10433073
74	0xbcd63989	-0.026150482
75	0x3c284a22	0.010271581
76	0x3c172e36	0.009227326
77	0xbd7a7acb	-0.06115226
78	0xbd709609	-0.058736835
79	0xbd2888b3	-0.04114599
80	0x3c677351	0.014126615
81	0xbd0d2a69	-0.034464274
82	0x3cafc327	0.02145536
83	0x3d865fd7	0.06561249
84	0x3e308534	0.17238313
85	0xbd8278df	-0.063707106
86	0x3d09d6a9	0.03365198
87	0x3dd31f89	0.10308749
88	0xbbe69a7b	-0.0070374585
89	0xbc59def0	-0.013297781
90	0x3cc6c39d	0.024263198
91	0x3c83f440	0.016107678
92	0xbded0681	-0.11573506
93	0xbe0bf0fa	-0.13666144
94	0xbbbb4722	-0.005715267
95	0xbd2d0d62	-0.04224909
96	0x3b40a5ca	0.0029395693
97	0xbe138baf	-0.14408754
98	0xbc7bd6e6	-0.01537106
99	0x3d208791	0.039191786
100	0xbc8319e2	-0.016003553
101	0xbc932b99	-0.017965125
102	0xbd2b4b51	-0.041819874
103	0x3c46d5c2	0.012135925
104	0x3d55baf7	0.052180257
105	0x3d5d1b00	0.053980827
106	0xbcc79677	-0.02436374
107	0x3d9089ba	0.07057519
108	0xbd66addc	-0.05631815
109	0x3d0d634e	0.034518532
110	0xbc38ae1c	-0.01127198
111	0x3e1fe174	0.15613347
112	0x3c8bef8a	0.017081995
113	0x3d4caa32	0.049967
114	0x3d0f9f9a	0.035064317
115	0x3d75cdc6	0.060010694
116	0x3d429717	0.04750737
117	0x3d1f3775	0.038871247
118	0x3e2379fd	0.15964504
119	0x3d1bc409	0.03802875
120	0xbd543735	-0.051810462
121	0x3d103aa2	0.035212167
122	0x3c96e497	0.018419547
123	0x3db4da88	0.08830744
124	0x3cbf0ad2	0.02332059
125	0x3e122579	0.14272107
126	0xbc9319f4	-0.017956711
127	0xbd994b64	-0.07485083

fc3.weight f4 [10, 128]
0	0x3cb8b743	0.022548323
1	0xbda28170	-0.079348445
2	0xbdaf11e6	-0.08548336
3	0x3d773cc4	0.060360685
4	0x3d8a7303	0.06760218
5	0xbd0e40a9	-0.034729633
6	0x3d11b478	0.0355725
7	0xbd68a32b	-0.056796234
8	0x3cfacdb0	0.030615658
9	0xbd03ad77	-0.03214785
10	0x3c3e4043	0.011612001
11	0xbaa61331	-0.0012670514
12	0xbebc75dd	-0.36808673
13	0xbb42a98b	-0.0029703106
14	0xbd41171b	-0.047141176
15	0x3da4a89f	0.080399744
16	0xbd84c315	-0.064825214
17	0xbd90a898	-0.07063407
18	0x3db7339e	0.08945392
19	0x3c7d3f33	0.015456962
20	0xbd96c085	-0.07360939
21	0xbd1c71de	-0.03819453
22	0x3d41a7f0	0.0472793
23	0x3cccebc6	0.02501477
24	0xbd04ad9a	-0.03239212
25	0xbcb8a633	-0.022540187
26	0x3c0b4fb1	0.008502887
27	0xbc0b6012	-0.008506792
28	0xbd2e8df7	-0.042615857
29	0xbdbbc8db	-0.091691695
30	0x3ca4381a	0.020046283
31	0xbd8523ff	-0.06501006
32	0xbd18e568	-0.037328154
33	0xb892242d	-6.968561e-05
34	0x3d996d34	0.07491532
35	0x3cdbd4d1	0.026834877
36	0xbcd2e12e	-0.02574214
37	0xbd9a46a8	-0.07533008
38	0xbd940400	-0.072273254
39	0x3da004cd	0.07813416
40	0xbd5b3a2f	-0.053522285
41	0x3d8c625b	0.06854697
42	0xbd70a0cf	-0.05874711
43	0x3d37666e	0.04477542
44	0x3d94b933	0.072618864
45	0xbcd7fe1d	-0.026366288
46	0x3d63606d	0.05551188
47	0xbd0def59	-0.034652088
48	0x3d386641	0.045019392
49	0xbe962b6e	-0.2933001
50	0x3db1a6f2	0.086744204
51	0xbd560c42	-0.052257784
52	0xbc503c98	-0.012709759
53	0x3d6e2837	0.05814382
54	0x3daa754e	0.08323155
55	0x3db155c9	0.0865894
56	0x3d9bc442	0.076057926
57	0xbbc17c00	-0.0059046745
58	0x3b7429ea	0.0037256428
59	0xbd9d3d7b	-0.07677742
60	0x3d5d931c	0.054095373
61	0xbd7e364e	-0.062063508
62	0x3dc84719	0.09779186
63	0x3dbf7d50	0.09350073
64	0xbda22ee6	-0.079191014
65	0xbde7c4d5	-0.113168396
66	0xbdad738a	-0.08469303
67	0xbd87cf83	-0.066313766
68	0xbda84475	-0.08216182
69	0xbe0542c2	-0.13013747
70	0xbb7ac92d	-0.0038266883
71	0xbd9c507f	-0.07632541
72	0xbcb73a93	-0.022366798
73	0x3dc8b739	0.09800572
74	0x3cf6cec3	0.030127889
75	0xbd22e90e	-0.03977304
76	0xbceeeb5f	-0.029164968
77	0xbcf620b7	-0.030044897
78	0xbbc63942	-0.006049306
79	0x3cb9949d	0.022653872
80	0xbdbb64fc	-0.091501206
81	0xbd2bd64c	-0.041952416
82	0xbc8b22a0	-0.016984284
83	0xbd9fe8d9	-0.07808084
84	0x3d76572e	0.060141735
85	0xbd815a57	-0.06316059
86	0x3d82f3a1	0.06394125
87	0xbda373c8	-0.07981068
88	0x3d265ad1	0.040613953
89	0xbbeb78e0	-0.0071860403
90	0xbd8a42ca	-0.0675102
91	0xbd782d90	-0.060590327
92	0xbd16edbf	-0.036847826
93	0xbd112bac	-0.03544204
94	0xbc64ef74	-0.013973106
95	0x3cbb2b6d	0.022847855
96	0x3cef2642	0.029193047
97	0xbcd69d2d	-0.026197994
98	0x3d0a8dfe	0.03382682
99	0x3cd3a4e0	0.025835454
100	0xbd053723	-0.032523286
101	0xbd006911	-0.0313502
102	0x3b13e0a4	0.0022564316
103	0x3d30cd46	0.043164514
104	0x3d979936	0.074022695
105	0x3cb4870f	0.022037057
106	0x3c8501f1	0.016236277
107	0xbd1e4011	-0.038635317
108	0xbd94f44f	-0.07273161
109	0xbbafe23e	-0.0053675463
110	0x3d3dcac9	0.04633597
111	0x3da42ee8	0.08016759
112	0xbc2d146c	-0.010563951
113	0x3c7790d6	0.015110215
114	0x3d8f6437	0.07001536
115	0x3d88c9f3	0.06679144
116	0x3d5420a5	0.051788945
117	0xbd4db543	-0.050221693
118	0xbdc5c1a3	-0.09656074
119	0x3d38f823	0.045158517
120	0x3d8f7a76	0.070057794
121	0xbe18c555	-0.14919026
122	0x3b4100fb	0.0029450047
123	0xbc85e2ec	-0.016343556
124	0x3ccb3837	0.024807079
125	0xbda08fad	-0.07839904
126	0xba676c4e	-0.00088280893
127	0xbd34a630	-0.0441038
128	0xbdec7960	-0.11546588
129	0x3c29327f	0.010326981
130	0xbc2d38f1	-0.010572658
131	0x3da57b48	0.08080155
132	0xbd3fe3dd	-0.046848167
133	0xbd8e5421	-0.0694964
134	0xbcdd5686	-0.027018797
135	0xbd15f42b	-0.03660981
136	0x3ca23aeb	0.019803485
137	0xbd329931	-0.043603126
138	0x3d716d79	0.058942292
139	0x3cd8c370	0.02646038
140	0xbe370fce	-0.17877123
141	0xbdae6b36	-0.085165426
142	0xbcb03a45	-0.02151216
143	0xbda49843	-0.08036854
144	0xbd9e7493	-0.077370785
145	0x3c59c035	0.013290455
146	0xbdd19481	-0.10233403
147	0xbd6797fa	-0.05654142
148	0xbd7849c4	-0.060617223
149	0xbcb490a8	-0.022041634
150	0x39a0e8f9	0.00030691156
151	0xbda11e62	-0.07867123
152	0x3db7a186	0.08966355
153	0x3922a3d9	0.00015510562
154	0xbd694803	-0.05695344
155	0xbd018abd	-0.03162645
156	0x3d49bd70	0.049252927
157	0xbdb62cd2	-0.088952675
158	0xbd3efbca	-0.046626844
159	0xbd33148f	-0.043720778
160	0x3cb9ce84	0.022681482
161	0x3d9f1832	0.07768287
162	0xbd8ebc1d	-0.069694735
163	0xbbe15896	-0.0068770153
164	0xbd994f65	-0.074858464
165	0x3d9ed14a	0.077547625
166	0x3d11f302	0.03563214
167	0x3bee5313	0.007273087
168	0xbd566b25	-0.052348275
169	0x3b978cbf	0.0046249325
170	0x3d44f055	0.04808076
171	0xbd33e3ca	-0.04391841
172	0x3d39088d	0.04517417
173	0xbcde12ab	-0.027108511
174	0xbcf318fc	-0.029675
175	0xbe2d59e2	-0.16928819
176	0xbd3e598e	-0.046472125
177	0x3c9b5efc	0.01896619
178	0xbcb3c577	-0.021944745
179	0x3b799591	0.0038083533
180	0x3d08db82	0.033412464
181	0xbe1512dd	-0.14557977
182	0x3d8b7210	0.06808865
183	0x3ce26da7	0.027640177
184	0xbd956d6d	-0.07296262
185	0x3d9f1d0f	0.07769214
186	0xbd16405e	-0.03668248
187	0xbc93441e	-0.017976817
188	0xbd8b72d6	-0.068090126
189	0x3ca32da0	0.019919217
190	0x3b2c53e5	0.0026295122
191	0x3d9ad40c	0.07559976
192	0x3d981f9e	0.074279055
193	0xbe2ea168	-0.17053759
194	0x3d65f6a3	0.056143414
195	0x3d8b5f42	0.06805278
196	0xbcf6660a	-0.030077953
197	0xbd61064b	-0.054937642
198	0xbaa01cef	-0.0012215654
199	0xbd36f788	-0.044669658
200	0xbd9e68bc	-0.0773482
201	0x3d137a4f	0.036005314
202	0xbe321e18	-0.17394292
203	0xbda543d5	-0.080695786
204	0xbd57c9b6	-0.0526826
205	0xbcf1869f	-0.029483138
206	0xbda10183	-0.078616165
207	0x3c0f4ae6	0.0087458845
208	0x3d229660	0.03969419
209	0x3d1ea9c1	0.03873611
210	0xbdb9332d	-0.09042964
211	0x3d228d27	0.039685395
212	0xbdeb039e	-0.11475299
213	0x3d5b2a41	0.053507093
214	0xbd86da68	-0.065846264
215	0x3c8ea834	0.01741419
216	0xbbd79a4a	-0.006579672
217	0x3d083c8c	0.033260867
218	0xbdaa8d46	-0.08327727
219	0x3d1881fb	0.037233334
220	0xbd2ef914	-0.04271801
221	0x3de976ad	0.11399589
222	0x3cc10952	0.023564015
223	0x3d12b417	0.03581628
224	0xbcad4da8	-0.021155193
225	0x3d1d6117	0.03842267
226	0xbdcbfc19	-0.09960193
227	0xbd8fa5de	-0.070140585
228	0xbc599cdf	-0.01328203
229	0x3d7187b0	0.058967292
230	0xbdc4b135	-0.09604112
231	0xbb8465fa	-0.004040477
232	0xbd2de5b5	-0.042455394
233	0xbd53b7bd	-0.0516889
234	0xbdaacbfc	-0.08339688
235	0x3d1b3cc9	0.037899766
236	0xbd8fd7f4	-0.07023612
237	0x3c88dcda	0.016706873
238	0x3d7f8026	0.06237807
239	0x3cb08866	0.021549415
240	0xbdfe7da5	-0.124263085
241	0xbdad148b	-0.08451184
242	0x3da2a6da	0.07941981
243	0xbd26d31f	-0.040728685
244	0xbda659e0	-0.08122611
245	0x3b29ebde	0.0025927941
246	0xbc282156	-0.010261854
247	0x3c2e6fa0	0.010646731
248	0xbd1be639	-0.038061354
249	0x3d8d72d0	0.06906664
250	0xbbc0efb8	-0.0058879517
251	0xbe0706f9	-0.13186254
252	0x3ceed58b	0.02915456
253	0xbd980b09	-0.0742398
254	0x3cf1de1c	0.029524855
255	0xbd9562de	-0.07294248

fc3.bias f4 [10]
0	0xbc24f7a2	-0.010068806
1	0xbe2b1da6	-0.16710529
2	0xbda90ed4	-0.08254781
3	0xbe1e0e78	-0.15435207
4	0x3daae3de	0.083442435
5	0x3d2b73ce	0.041858487
6	0xbd423764	-0.047416106
7	0xbd302a98	-0.04300937
8	0xbd54075b	-0.051764827
9	0x3dd64f78	0.10464376
